src/verifai/monitors/best.pth (torch, 2519 bytes, 6 tensors)

conv1.weight f8 [2, 5, 3]
0	0x3fbccb19402833dd	0.11247403923353212
1	0x3fbf6f59261df1e8	0.12279278927412174
2	0x3f96f7a6b681e0e5	0.02242908944069279
3	0x3fa71e9f27929529	0.04515550001205277
4	0x3fb7c470c7a56c2d	0.09284119486021387
5	0x3fdd7e81029ab703	0.46084618810969874
6	0x3fc59fb367522fc6	0.16893618149731376
7	0xbfb4a33f84645dc8	-0.08061596853473596
8	0x3fd0363846f88943	0.25330931597467926
9	0x3fc1f4cd24a29fdc	0.1402832440264764
10	0xbf93d3661fa99ed0	-0.01936111038449334
11	0x3fe47cfb4fb9c84a	0.6402565533774205
12	0x3fca27641805b734	0.20432711766209766
13	0x3f6ec5a0b9aeac4d	0.003756345669406558
14	0x3fd9bc3c4d5335a4	0.40211398650429886
15	0x3fc0e8a19cc6dea1	0.13209934382552027
16	0x3fa34e82df481761	0.037708368068748006
17	0xbfd9cfe3db05a387	-0.40331360234136365
18	0x3f51c1ee938821af	0.0010838346335067907
19	0xbfaa2e027ce81ee4	-0.05113227629413844
20	0x3f91db970298d316	0.01743923142767575
21	0xbfd1c62db369cbc8	-0.2777208568651841
22	0xbfbb1649e4abfe39	-0.10580884774025713
23	0xbfdf6daa2efa8d80	-0.49106840694204124
24	0xbf817f0647ad1d0f	-0.008543061315903459
25	0xbfc392fd39f4dfe0	-0.15292325334462387
26	0xbfdaa743225ae43d	-0.4164588771341789
27	0xbfb5e789df428604	-0.08556424809150803
28	0xbfb26d659f05da2a	-0.0719817651023297
29	0xbfde1228584fb6be	-0.4698582518020479

conv1.bias f8 [2]
0	0xbfc73968bad4e39b	-0.1814394867194807
1	0x3f9004170e1e63a4	0.01564060233758692

conv2.weight f8 [1, 2, 3]
0	0xbfe08f3643510c9a	-0.5174819292809787
1	0x3f95027a90ea8e20	0.020517268271431743
2	0x3f85452099321732	0.010385756182823867
3	0x3fc80a321f8e8fce	0.18781115094054573
4	0x3fd4a014ae87daa2	0.3222705559159441
5	0xbfd1021eeeb14b24	-0.26575444516963587

conv2.bias f8 [1]
0	0x3fcdbcac6315b1c6	0.2323203548252321

fc1.weight f8 [1, 9]
0	0x3fba28ef60000000	0.10218711942434311
1	0xbfcf881260000000	-0.2463400810956955
2	0x3fd282f840000000	0.28924375772476196
3	0x3fddba267076ed95	0.46448670370929196
4	0xbfbc492b70120af7	-0.11049148069472979
5	0x3fcdc26654a3ac71	0.23249510891705286
6	0x3fd2e7e9b41b6438	0.2954048403603937
7	0x3fc5893c33bbcd05	0.16825058485083147
8	0xbfd025ed00000000	-0.25231480598449707

fc1.bias f8 [1]
0	0xbff5eb5fe3e7f016	-1.369964494951096
